binary_to_nbrdf/npy/w1.npy (npy, 632 bytes, 1 tensors)

array f4 [6, 21]
00000000: fe1e 9fbb 656b d23d 119b ecbc f8ec 6ebe
00000010: 0c00 96bd 7a72 4ebd 2a2b a63d 95a8 82be
00000020: 0f6a a53b 4081 fabc 3d38 783c d0ec c53d
00000030: 5294 43bd 3c2b a9bb 30d1 f2bc d4ad 5cbd
00000040: f269 89bc edfa d8bc 48d8 6abe 8c64 75bd
00000050: 1537 b63c 67e9 253d 670c a4bc 0c1c 96bc
00000060: ad9f 393d 47e5 b8bc 27a1 103d 0e5e df3c
00000070: 890b 3b3d 8045 5e3a 98cb b5bb 00e0 49ba
00000080: aa5a 40bd ba2b acbc 8e73 a33c 864c 993c
00000090: 003a 8b38 7ae3 bf3c 3d12 283d d14f 1c3d
000000a0: d195 263d 3a49 ef3c 49aa 52bb fccd c33c
000000b0: 8157 5cbd 7ea2 0c3e 59fc 5f3e c723 af3d
000000c0: a8cc 0e3c 2572 ca3d 946e 2b3b e69e 1ebd
000000d0: 0ba5 6f3d faae 4f3e 2dae 023c 5c5d 0abc
000000e0: 6274 0fba f78a a7bd 39d7 53bd 9bd6 2f3e
000000f0: 1877 883d 69d7 6a3d 5f41 753b 5724 b3bc
00000100: 5ea8 5b3e 6f2e 35bd 3f2d f33d 354c 223e
00000110: 2bb1 0c3e d34a ff3d f34b 1f3d 07e7 ce3b
00000120: 98f9 01bc e5b4 27bd 70ce 893e 64d7 cabd
00000130: f6eb c9bd 1a9e f23c f150 beba 6a36 3dbd
00000140: 0e54 293e fede 5fbd c164 82bd 031b f13a
00000150: 847f c33c 9816 2ebd b1d4 b53c f57c df3b
00000160: 976a 83bd 8a91 efbd defd 27be dc34 a0bd
00000170: f01c 923f b26c de3c 3334 22bc 4d8b 55bd
00000180: d8d3 dcbd 87cc a23e 33ce 323e 180e a0bd
00000190: 7b2d 283c 35cb 87b9 c1dc 83bd d7ec 913e
000001a0: df76 f03b 34c9 f43c b2bd 3abd 053d 1e3d
000001b0: 019e 703e 73eb 683e da5c 10bb ef67 0bbd
000001c0: 94e1 993e aaa2 cc3a 1862 32bc 9992 27be
000001d0: e040 d73d dd05 7abd 7a6b 083d 4205 0abe
000001e0: 7f96 3d3e 72b2 ac3c 4e76 153e 216b 4c3e
000001f0: b938 55bc 84a2 473c
-0.0048559895 0.1027439 -0.028882535 -0.23332584 -0.07324228 -0.050402142 0.08113702 -0.25519243
0.0050480436 -0.03057921 0.015150127 0.09664309 -0.04774887 -0.0051626246 -0.029640764 -0.053876713
-0.016774151 -0.026486838 -0.22934067 -0.059910342 0.022243062 0.040505793 -0.020025445 -0.01832392
0.045318294 -0.022570265 0.035309937 0.027266528 0.045665298 0.0008478984 -0.005547952 -0.000770092
-0.046961464 -0.021016944 0.019952562 0.018713247 6.63884e-05 0.023423899 0.04103302 0.038162056
0.04067022 0.029209722 -0.0032144955 0.023901932 -0.053794388 0.13733861 0.21873607 0.08551746
0.008715786 0.098850526 0.002615844 -0.038725756 0.058507007 0.20281592 0.007976097 -0.00844511
-0.00054723595 -0.08180802 -0.051718924 0.17171709 0.0666334 0.057334337 0.0037422997 -0.021867914
0.21450946 -0.044233736 0.118738644 0.15849383 0.13739459 0.124654435 0.03889079 0.0063141617
-0.007933043 -0.040944 0.26915312 -0.09904364 -0.09859459 0.029616404 -0.0014519972 -0.04619447
0.1653597 -0.05465602 -0.063668735 0.0018394891 0.023864515 -0.042502016 0.022196146 0.006820316
-0.06416815 -0.11697681 -0.16405436 -0.07822582 1.1415081 0.02715144 -0.009900141 -0.0521348
-0.107825935 0.31796667 0.17461471 -0.07815188 0.01026475 -0.00025900608 -0.0643859 0.28501007
0.0073383893 0.029881097 -0.045591064 0.03863241 0.23497774 0.22746067 -0.0022028 -0.034034666
0.30054915 0.0015612443 -0.010887645 -0.16364516 0.10510421 -0.061040748 0.033305623 -0.13478568
0.18514441 0.021081183 0.14595911 0.19962741 -0.013014012 0.012184743
