binary_to_nbrdf/npy/w2.npy (npy, 1892 bytes, 1 tensors)

array f4 [21, 21]
0	0xbd2a85f6	-0.04163166
1	0xbc7ff578	-0.015622489
2	0xbd4a59fd	-0.049402226
3	0xbd17b7c7	-0.037040498
4	0x3c611b56	0.013739428
5	0x3cb1ded2	0.021712694
6	0xbc0651cf	-0.008198216
7	0x3c47d245	0.012196128
8	0x3c99f065	0.018791387
9	0xbb985f70	-0.004650049
10	0xbd7f0b91	-0.06226689
11	0xbb1caf5c	-0.0023908233
12	0x3c2ea977	0.010660521
13	0xbd2b9e06	-0.04189875
14	0x3cbe872c	0.023257814
15	0x3d1da6d7	0.03848919
16	0xbc25bf65	-0.010116433
17	0xb9286147	-0.00016057967
18	0x3b12246d	0.0022299543
19	0xbd1cbd8c	-0.038266703
20	0x3d18ea58	0.037332863
21	0x3d34dd74	0.044156507
22	0x3cc9bc8e	0.024626043
23	0xbd48879a	-0.048957445
24	0x3cbe22fc	0.023210041
25	0x3cb1a975	0.021687249
26	0xbd43ae32	-0.047773547
27	0xbf0c7263	-0.5486204
28	0xbca4923f	-0.020089267
29	0xbc87ba44	-0.01656831
30	0x3d040be9	0.03223792
31	0xbb4f9033	-0.0031671643
32	0xbd0ca59b	-0.03433762
33	0xba05eb29	-0.0005108589
34	0xbb85f7f7	-0.0040883976
35	0x3bed9b60	0.007251188
36	0xbcbf6747	-0.023364676
37	0xbc38f34b	-0.011288474
38	0xbce939a5	-0.02846987
39	0xbea40cbc	-0.32040966
40	0xbd58c529	-0.0529224
41	0x3cff6ab1	0.031178804
42	0xbbc0d2f9	-0.005884525
43	0xbe2de054	-0.16980106
44	0xbc5249ef	-0.01283501
45	0xbcde24be	-0.02711713
46	0x3d312a61	0.043253306
47	0xbd772558	-0.06033835
48	0x3d6c2e9a	0.05766163
49	0x3cb6a680	0.02229619
50	0x3c865bdb	0.016401222
51	0x3d0de69a	0.034643747
52	0xbd215c63	-0.039394747
53	0xbc03df0b	-0.008048783
54	0xbceb5853	-0.02872864
55	0x3d078982	0.033090122
56	0x3d31883b	0.04334281
57	0xbc0a890d	-0.008455527
58	0x3d29a787	0.041419532
59	0xbc65667f	-0.014001488
60	0xbc59554a	-0.013264963
61	0x3c02742d	0.007962269
62	0xbbc3be28	-0.005973596
63	0xbd1d4c06	-0.03840258
64	0xbce2f136	-0.027702909
65	0xbce6d781	-0.028178932
66	0x3ccb772b	0.024837097
67	0xbef36aa0	-0.47542286
68	0x3cac78cb	0.021053692
69	0xbcd649c0	-0.026158214
70	0x3c20328d	0.009777677
71	0xbc2f5899	-0.010702276
72	0xbc79f32f	-0.015255733
73	0xbe007f16	-0.1254848
74	0xbf2f69b6	-0.6852068
75	0xba88ed26	-0.0010446652
76	0xbc126cc8	-0.008937068
77	0xbc6d55b2	-0.014485763
78	0xbcdbd2c3	-0.026833897
79	0xbd4ca788	-0.049964458
80	0xbf59bd90	-0.85054874
81	0xbd45b4ef	-0.048268255
82	0x3c040fcd	0.008060408
83	0x3d18b784	0.03728439
84	0x3ce0606e	0.027389731
85	0x3c1b7858	0.009489141
86	0xbb98630d	-0.0046504796
87	0xbc5bc9ec	-0.013414841
88	0xbe3e2c9b	-0.18571703
89	0xbbf15400	-0.00736475
90	0xbd32eea9	-0.043684635
91	0xbbf7aafa	-0.007558224
92	0x3b6f5819	0.0036521016
93	0xbd00e1b2	-0.03146524
94	0xbd8be4fa	-0.06830783
95	0xbea7e811	-0.3279424
96	0xbca3b1f1	-0.01998231
97	0x3ce161f2	0.027512524
98	0xbd5c0f2b	-0.053725403
99	0xbd1d562c	-0.038412258
100	0x3d05047d	0.032474983
101	0xbf2c89e6	-0.67397916
102	0x3c572794	0.013131995
103	0x3c3daa3a	0.01157623
104	0xbd67e31e	-0.05661308
105	0x3ceab20c	0.028649352
106	0xbd637bd1	-0.055538002
107	0xbc146467	-0.009057141
108	0x3c7b0a18	0.015322231
109	0xbd355e4c	-0.04427938
110	0x3d1cdeed	0.038298536
111	0xbd2b27ef	-0.04178613
112	0xbc8bdc29	-0.017072754
113	0x3caea308	0.021317974
114	0x3d1adbfc	0.03780745
115	0xbaf1165d	-0.0018393506
116	0x3c1f363b	0.009717519
117	0x3b754ed1	0.0037431011
118	0x3c2d1dad	0.010566157
119	0xbd190e8f	-0.0373674
120	0xbb9cb380	-0.0047821403
121	0xbc93d48d	-0.018045688
122	0xbcacbb97	-0.021085544
123	0xb9387bd8	-0.00017593743
124	0xbd26873c	-0.040656313
125	0xbd3906b0	-0.045172393
126	0xbd452c49	-0.048137937
127	0xbd5fc427	-0.054630425
128	0x3b8d7b9b	0.0043177134
129	0xbd4d733d	-0.050158728
130	0x3a0c1edb	0.0005345174
131	0x3b79bc1d	0.003810651
132	0xbd74cb64	-0.05976428
133	0x3d0bf711	0.034171168
134	0xbd1ab515	-0.03777035
135	0x3c16dfed	0.0092086615
136	0xbd4edac2	-0.050501592
137	0xbc6cd7a5	-0.014455711
138	0x3d1174cd	0.03551178
139	0xbd3f585f	-0.046715137
140	0xbcb25d4b	-0.021773001
141	0xbc8a4aa2	-0.01688129
142	0xbc7891fc	-0.015171524
143	0xbd779645	-0.060446043
144	0xbce3c436	-0.027803522
145	0x3c48ccf0	0.012255892
146	0xbc8f6e76	-0.017508727
147	0xbbe77150	-0.0070630684
148	0xbcebf742	-0.028804425
149	0xbcbc4ef5	-0.022986868
150	0xbbc60a76	-0.0060437275
151	0xbe134917	-0.1438335
152	0xbd8546b3	-0.065076254
153	0xbd2ac78e	-0.041694216
154	0xbb6e0d2a	-0.0036323764
155	0xbb93325d	-0.0044920878
156	0xbcab4364	-0.020906158
157	0xbdf22a36	-0.11824457
158	0xbebed5fe	-0.37272638
159	0x3cf06ff4	0.029350258
160	0xbd265554	-0.04060872
161	0x3cd3095d	0.0257613
162	0x3d3dc3ff	0.046329495
163	0x3ca0252a	0.019548971
164	0xbed72bef	-0.42025706
165	0xbc354367	-0.011063433
166	0x3c55d963	0.013052317
167	0x3cbabb76	0.022794466
168	0xbcc50f00	-0.024055004
169	0xbcd93e57	-0.026518984
170	0xbd1c642b	-0.038181465
171	0xbcffcca5	-0.031225512
172	0xbd9e4ae4	-0.07729128
173	0xbc0c7513	-0.008572835
174	0xbce86cef	-0.028372256
175	0xbd0b1782	-0.033957966
176	0xbc94187f	-0.018078087
177	0x3baeba45	0.0053322637
178	0xbcb5a536	-0.022173505
179	0xbb0941be	-0.0020943726
180	0x3c8d03d3	0.017213738
181	0x3cd041db	0.025422027
182	0x3b8512d0	0.0040610805
183	0xbd1ed6a3	-0.038778912
184	0xbca8d695	-0.020610133
185	0xbf555b50	-0.83342457
186	0xbc1287ae	-0.008943481
187	0xbd88b373	-0.06674852
188	0x3c42f4fd	0.01189923
189	0xbd096e14	-0.033552244
190	0x3c88df92	0.01670817
191	0xbc84157a	-0.016123522
192	0xbbb75ed0	-0.0055960193
193	0xbcca1bb3	-0.024671411
194	0xbc79f4f4	-0.015256155
195	0x3d2a96a7	0.04164758
196	0x3d0ec96d	0.034860063
197	0x3c7feaa4	0.0156199075
198	0xbbbe7f18	-0.0058134906
199	0xbd20ca33	-0.039255332
200	0x3b9b5430	0.0047402605
201	0x3d4636e9	0.04839221
202	0xbc9d8e3a	-0.019232858
203	0xbd16f9c6	-0.036859296
204	0x3d01af83	0.03166152
205	0x3c028168	0.007965423
206	0x3d45f5c3	0.04833008
207	0x3c2e284c	0.010629725
208	0xba8945a0	-0.001047302
209	0x3c87b69a	0.016566563
210	0x3cfc9ba8	0.030835941
211	0xbd42bc64	-0.047542945
212	0xbd0124d1	-0.03152925
213	0xbcbe84bf	-0.023256658
214	0xbd48dadb	-0.04903684
215	0x3cf11169	0.029427247
216	0x3d29e84d	0.041481305
217	0xbd572d45	-0.052533407
218	0xbd3031c0	-0.043016195
219	0xba968afd	-0.0011485514
220	0x3d3e914b	0.04652528
221	0x3d4bef04	0.04978849
222	0xbd126638	-0.035742015
223	0x3d1aa2cb	0.037752908
224	0xbcc259fd	-0.02372455
225	0xbcdd1d39	-0.026991474
226	0x3bcb902d	0.0062122555
227	0xbc9b27df	-0.01893991
228	0xbc6cdc66	-0.014456844
229	0x397dc79a	0.00024202318
230	0x3ccaf60f	0.024775533
231	0xbd149296	-0.036272608
232	0xbdc55aa1	-0.09636427
233	0xbd19c63c	-0.037542567
234	0xbce388bc	-0.027775161
235	0xbe87fe13	-0.2656103
236	0xbd220cec	-0.039563105
237	0xbcbd4c93	-0.023107802
238	0x3ae0852c	0.0017129532
239	0x3c964904	0.018345363
240	0x3b4bc8b7	0.0031094977
241	0xbb06a9f0	-0.0020548068
242	0xbe394ab4	-0.18094903
243	0xbd5d43f5	-0.054019887
244	0xbd445559	-0.047932956
245	0xbd5142d2	-0.051089115
246	0xbd4b1bff	-0.049587246
247	0xbc18da27	-0.009329355
248	0xbe75202d	-0.23938055
249	0xbcb69f3b	-0.022292724
250	0xbd54114f	-0.05177432
251	0xbd4f1e79	-0.05056617
252	0xbd400452	-0.04687912
253	0xb9bc6a9b	-0.00035937582
254	0xbc406b4d	-0.0117443325
255	0xbc6b6d53	-0.014369327
